models/fashion_cnn_best.pth (torch, 903883 bytes, 8 tensors)

conv1.weight f4 [32, 1, 3, 3]
00000000: 3510 193e d8aa 203e c11f 76be a029 3e3d
00000010: 2c91 543e e41a a3be 1e9a 123d f7d5 bb3e
00000020: 60c2 cfbe f765 983c b0c0 eebe ff06 38be
00000030: b78a a0be f8bb 5f3e 3eab 913e d3bc 8e3e
00000040: fc2b 443e 528d 523e 6b3f 30be ff39 d7bc
00000050: 064d 563e b48d c3be 9322 48be e728 4b3e
00000060: 6a9f 71be 6e40 b2be 1f10 dcbd 118c 22be
00000070: bd86 cc3d 79ab 8a3e d98f bcbd a872 95be
00000080: 428d 133e 9e07 693e 5a4b f83d 88b2 90be
00000090: eb2b 5c3b 340e 55be 333c cebe 9bc0 b83d
000000a0: 385a c5be cae0 173b 84d6 fcbd 45d1 7a3e
000000b0: 2815 74bd 4859 7ebe 7d90 85be ed9d 64be
000000c0: 6bde b93e 037b bd3d d867 b93d 31c8 323e
000000d0: 447a f7bd 863c 1cbe e381 c33d 28a0 2d3e
000000e0: 5175 323e 8a69 d4bd 3a3c bc3e 066d df3d
000000f0: 1a39 303e cab0 053e 320c 5bbe 8f04 5abe
00000100: 4a39 d0bd 968b e23c c14e 01bc 86d6 ccbe
00000110: fe9d 32be a3e7 25bd 8dbe 93be ea31 4cbc
00000120: 62fd 4a3e 18a3 9a3e 7155 f6be 7d3e f63e
00000130: 662c 83be d911 233d 8b86 b6bd f9d1 c13c
00000140: 3f24 60be 2ede 88be e2de 393e 4d96 573e
00000150: be1e bcbd 7d8b 713e da8e 89be e064 a9be
00000160: 0811 b43e 23fe 713c 9d54 2bbe c988 8ebe
00000170: c548 8bbe 2d77 9d3e b13c 10be 3b19 22be
00000180: 7ce1 f9bd 9f04 36bc 6d24 8b3e 6aef 8c3e
00000190: 6285 24be 15e7 e4be e770 233e 596e 063e
000001a0: d3ba 393e c5f3 893d 9380 28bd b8fb 153e
000001b0: 7ac2 debd a3f5 7fbd ea4f cc3d 7774 2cbe
000001c0: ed33 b8bd 1649 49be 2bca a9bd a99e 03be
000001d0: 1ae4 a1bd 74fc 9bbe 9ba4 98bc 604a d23e
000001e0: efaf d1be 93d4 38be f4d6 743e 3509 31bd
000001f0: 49dd 97be 7c02 983e 1b28 853c 3bf5 533e
00000200: a753 6fbe 24e0 3c3d 8a9f 353e ab11 98be
00000210: 7b63 b83e 8901 afbe 3380 f13d 3fb9 abbe
00000220: 7c78 443e 4ffc 23bc 231d dcbc d9b0 3b3e
00000230: 58b9 3f3e 22be c13e ee80 93be b5c0 a8be
00000240: a565 b13c 4148 b4be 86d2 19bc e12a a8be
00000250: 60c9 cdbd 6057 babd df2f 4cbe fe11 1238
00000260: 1b5f a8bd 9f41 653d 53cb a3be 0380 983e
00000270: 8c2f 9abe 1b9b 66be 2f6e fa3e fa68 563e
00000280: 0731 763e 2194 d6be 29bf 53be b8fe dabd
00000290: 9538 c9be 704e 8d3e 86ed b3be bf1a 56be
000002a0: fe4e 063e 9308 2d3d 871c 0dbe b47a 83be
000002b0: d086 51bd 3652 7e3e 52ab b93e 3cb4 d23e
000002c0: 8418 11be 9ee6 76be 9691 bb38 c5f1 a2be
000002d0: 6285 053e 742f 2cbe 7703 293b a5e8 a53e
000002e0: 769d d2be 4d5a c93c 40a4 8a3e 9679 eebe
000002f0: fd78 903e 8bd7 e8be d144 2fbe e084 aabe
00000300: 2b72 193e f12a c6be 55d4 97bd 4a67 e63e
00000310: de70 ae3e 319a 8a3e 2da1 57be f37a 193c
00000320: 0e1d a73e 9fa7 87be 9dfb 8b3e 6a39 ce3d
00000330: 9993 a4be 51cb ae3e 7d92 81be 86b5 8bbe
00000340: d16c 1f3e 7c83 113e 891a 0dbe fd61 933e
00000350: 9401 0fbe 5054 03bf f327 093f 2629 5abd
00000360: 7c32 9c3e e90b 41be e243 17be dbd8 43be
00000370: 240c 983e 9023 813e 3f02 e6bd 91d6 b2bd
00000380: 7dea aabd 4ad2 f33d dd94 ffbe 5fb0 d0be
00000390: c087 0c3e 44b0 aebc 258a bd3e 6fea 1a3e
000003a0: 642d d7be b484 f63e 8702 5ebe 828e b4bd
000003b0: 56f9 9e3e b66d 48be 2d38 8938 62b7 563e
000003c0: 7c8f 84bc e010 133e 9b7c 0bbe 6ead 12bd
000003d0: 8065 61be 9801 273e 7c78 d3be 6ee8 35bd
000003e0: 0863 cb3e 7492 bdbe 3a39 3d3e 43f0 a73e
000003f0: fbbc 76be cfb6 d83e a6c8 443e 2dc0 b23e
0.14947589 0.15690172 -0.2403555 0.046426415 0.20758504 -0.31856453 0.03579151 0.3668668
-0.40577984 0.018603308 -0.46631384 -0.17971419 -0.3135583 0.21849048 0.2845096 0.27878436
0.19157404 0.20561722 -0.17211692 -0.026272772 0.2092782 -0.38194048 -0.19544439 0.19839822
-0.23595968 -0.3481478 -0.10745262 -0.15873744 0.09986637 0.27083948 -0.09207124 -0.29189038
0.14409354 0.22756812 0.12123747 -0.2826121 0.0033595513 -0.208062 -0.40280303 0.090211116
-0.38545394 0.0023174756 -0.12345603 0.24493892 -0.05959049 -0.24838746 -0.26086798 -0.22325869
0.36302504 0.09251978 0.0905301 0.1745918 -0.12083867 -0.15257463 0.09546258 0.16955626
0.17427565 -0.103716925 0.367647 0.109094664 0.17209283 0.13055721 -0.21391371 -0.21290801
-0.10167177 0.02765445 -0.007892312 -0.40007418 -0.17443082 -0.04050411 -0.28856316 -0.012463072
0.1982322 0.30202556 -0.48112062 0.4809455 -0.2561981 0.039811943 -0.08912381 0.023659693
-0.21888827 -0.2673201 0.1815143 0.21053429 -0.09185551 0.23588367 -0.268668 -0.33084774
0.35169244 0.014770064 -0.16731496 -0.27838734 -0.27203956 0.30754986 -0.14085652 -0.15829937
-0.12201211 -0.0111095 0.27176228 0.27526408 -0.16066507 -0.44707552 0.15961038 0.13128032
0.18137674 0.067359485 -0.041138243 0.14646804 -0.10876937 -0.062490117 0.0997618 -0.16841303
-0.08994279 -0.19656786 -0.082905136 -0.12853493 -0.07904835 -0.30466044 -0.018633178 0.4107237
-0.4095454 -0.1804984 0.23910123 -0.04322167 -0.29661015 0.29689395 0.016254475 0.20699017
-0.23371755 0.046112195 0.1773664 -0.2970098 0.36013398 -0.3418086 0.1179203 -0.3353977
0.19186586 -0.0100088855 -0.026869362 0.18329181 0.18723047 0.37840372 -0.28809303 -0.32959524
0.021654913 -0.35211375 -0.009388572 -0.32845214 -0.10048175 -0.09098697 -0.19940136 3.482587e-05
-0.08221265 0.055970784 -0.31991062 0.29785165 -0.301144 -0.22520106 0.48912188 0.20938483
0.2404214 -0.41909888 -0.2067839 -0.10693115 -0.3930098 0.27598906 -0.35142154 -0.2090864
0.1311607 0.042244505 -0.13780414 -0.25679553 -0.051153958 0.24836048 0.3626352 0.41153133
-0.14169508 -0.24111411 8.943972e-05 -0.3182508 0.13039163 -0.16814977 0.0025789419 0.32404056
-0.41135758 0.024579192 0.27078438 -0.46577138 0.28217307 -0.45476946 -0.17116095 -0.333045
0.14984958 -0.38704637 -0.07413546 0.45000678 0.34070486 0.27070764 -0.21057577 0.009367692
0.32639354 -0.26495072 0.27340403 0.100695446 -0.32143858 0.34139493 -0.25307074 -0.2728693
0.15568854 0.14210314 -0.13779654 0.28785697 -0.13965446 -0.51300526 0.5357658 -0.0532619
0.30507267 -0.188522 -0.14771989 -0.19125693 0.29696763 0.25222445 -0.11230897 -0.087323315
-0.08345506 0.11905344 -0.4991826 -0.4075956 0.1372366 -0.021324284 0.37019458 0.15128492
-0.42026818 0.4814812 -0.21680652 -0.08816244 0.31049603 -0.19573101 6.5431326e-05 0.20968392
-0.0161817 0.14361906 -0.13621752 -0.035809927 -0.22011375 0.16309202 -0.4130286 -0.044411115
0.39723992 -0.37025797 0.18478861 0.32800493 -0.24095528 0.42326972 0.19217166 0.34912243

conv1.bias f4 [32]
00000000: dea4 a9bc 4f8f 033e 58df 09bf e106 07bd
00000010: f668 08bf 0e37 203e 1b55 bcbe 1a0b 20bf
00000020: 435a 5cbc 303d d93d b782 c4be e0f7 fbbc
00000030: c17a c23d 4faf 55be ded4 173d f3d8 2dbd
00000040: f41a 21bf 4b19 1bbc c8fb 05bf 78ca 8cbd
00000050: 52fe 6dbc f072 59be 80c3 9abb a36c 40bc
00000060: 9e0f b53d 12a8 fbbd 3d06 43bc b8d3 c23b
00000070: 2c3f 2b3e 8377 a53d 31f0 413d 245a 2a3e
-0.020708498 0.12847637 -0.5385642 -0.032965545 -0.5328516 0.15646002 -0.3678368 -0.6251694
-0.013449254 0.10607374 -0.38380978 -0.030757844 0.0949607 -0.20867656 0.03706824 -0.042443227
-0.6293175 -0.0094664795 -0.5233731 -0.06874555 -0.014525967 -0.21235251 -0.0047230124 -0.011744651
0.08840869 -0.12287916 -0.011903343 0.005945649 0.16723317 0.08079436 0.047348205 0.16635948

conv2.weight f4 [64, 32, 3, 3]
00000000: 8d60 1a3d 8780 46be 1413 70bc fd6f 093e
00000010: d51d dfbd 651b 7bbd 5e3e 133e bc85 65be
00000020: 3853 23be 94c9 17be d8ea 2abd f105 993d
00000030: 32ef a4bd 843f 0e3d f2c7 a03d 3db2 c13d
00000040: 839a 013e c701 073e caee 0bbe eeac e83d
00000050: 1b4e 40bc 42f2 d2bd 7dfb 81bd 5ea3 21bd
00000060: fea3 0f3d 6441 51be df50 adbd 9cfc 47bd
00000070: d770 a33d ef42 223c d156 d8bd 5143 a73c
00000080: 1685 3dbb 8e6b 183c fd69 b4bd afed 14bd
00000090: d09f 97bd 9e58 90bd 552b e5bd 75aa a6bc
000000a0: 26ee 3cbd 1e8d d2bd 7693 a3bc e099 d2bd
000000b0: 15c2 82bc 308c 7fbd 6784 17be 7729 b23d
000000c0: 7020 dcbc 4dd1 1bbc a0b0 513c 2e00 4d3d
000000d0: 3cdf 143e eb31 613d a29e f13c a9f1 d43c
000000e0: ca0c 383d cbef d0bd 167c 8e3d 107c 5f3c
000000f0: 007e 223c cc18 473d 6d83 0b3e 3a3e 2bbd
00000100: d1be a53c e083 1abe 224b 6bbd df36 a63b
00000110: 045a e6bd e7a7 88bc bb90 36be f11f 69bd
00000120: dc11 89bd 3f4b 18be 385c fe3d faca 343d
00000130: 285d cd3c 54eb adbd 737b d63c 5458 5fbd
00000140: 3678 8bbd 4e88 bcbd 718c f1bc 6ea2 173d
00000150: cb21 0fbd 50e4 913d 7907 09bd 7d10 3d3b
00000160: d72b bd3d 4bf4 533b 460c dabd 8e06 a6bd
00000170: 1041 4ebd 479e 10bd c9c8 86bd 3326 1fbd
00000180: c671 22bd 900e a8bd 5097 ffbd 155c d6bd
00000190: 56bd 623c 5c05 1e3d 8bde debd 05b7 3dbd
000001a0: 1bf3 293d c5c6 90bc ad21 473e 62b0 23bc
000001b0: 08fe abbd 1411 66bc 9dda 98bd 5c09 ebbd
000001c0: e12d 56bd 3712 0fbd 0df0 30bc 51f0 d5bd
000001d0: 0f22 91bc d5a7 2dbe 393c 88bc 1502 27be
000001e0: 5e04 603d eca6 a6bd f051 aabd 4738 9d3d
000001f0: 97e6 56be 824c 3bbe 7735 f5bd 03fa 99bd
00000200: ea10 c93d b023 c0bd c13e 093d e116 4fbd
00000210: dff7 eb3d 0239 673d be4d 60bd 369d 07bd
00000220: 14b4 febc 254b 953d c0b5 54bd 14bd 343d
00000230: 7a70 62bd 02a2 9b3d 022a 8b3e 4993 3d3e
00000240: 66d5 4dbc 6340 1a3d 1a45 85bd efc5 d2bd
00000250: 0ebd ed3c d0da cf3b d4bc 91bb c0a3 1bbe
00000260: 7ac5 793c e2a2 73bd 5ac0 d5bb c4fe 76bc
00000270: 4af9 873c a9a0 7f3d 260c 1a3d 01f1 673e
00000280: c9c2 34bd a100 683e 7db9 4abb 3b2f 30bd
00000290: 3818 45bd 2b4c a1bd 4496 9ebc eea8 13be
000002a0: c6c7 b63c 66a4 08be 53a1 37be b011 5cbd
000002b0: e550 50be a60e c33d 911e d23d 1149 aa3d
000002c0: b00f 9fbd 35a7 a73c 8e38 403e a2ef 983e
000002d0: 3e00 273e 565f 4ebd d8df 453d 60f2 973e
000002e0: d35c e63d e47c babc 06a9 da3e 75e8 ae3d
000002f0: 3022 4abe b951 cdbd ea06 e3bd 4411 02bd
00000300: 7d42 85ba 34fb cdbc b46b 63bd d561 0a3d
00000310: cbad d53d b429 903d 102b aabd 2e46 95ba
00000320: 7dc3 f0bd 3611 78bd 90c0 ae3b b472 fdbd
00000330: 0d1f 5f3d 6ce8 163e 39c5 df3c befc b1bb
00000340: fe1b 84bd 1deb e3bd 05da 9a3c d711 c13d
00000350: b76a 373d b48f 093e 5bd4 ee3d c9c4 bfbd
00000360: 615e a8bd 4f02 953d 3365 083e 6ea0 693b
00000370: 3950 a53c 3afc 8c3d 42f7 933c cb8d 083e
00000380: 9657 4c3d b44d 83bd 6e7b b0bb cfd9 5b3d
00000390: 5849 0e3e e552 dbbc 1f98 aabd b613 ac3e
000003a0: 2869 08ba 5f2c 8fbd 8d3f dabd b28f 97bd
000003b0: 9b00 cebc aad7 acbd 761a 34bc e446 d03c
000003c0: 36fa d03d 3649 56bc d836 743d ab63 d3bd
000003d0: f253 c8bd 7f4f 5d3d c751 873d 20a4 19bd
000003e0: b278 cd3d 9780 873d 0cce 18bc d8a6 8bbd
000003f0: 3238 603d de83 f2bc dfd3 223e ce5a 53bd
0.037689734 -0.19384967 -0.014652986 0.13421626 -0.10894362 -0.061305422 0.1437926 -0.22414297
-0.15949714 -0.1482299 -0.04172787 0.07471836 -0.080534354 0.034728542 0.078506365 0.094578244
0.12656598 0.13184272 -0.1366531 0.11361109 -0.011737372 -0.10300113 -0.06346796 -0.03946244
0.035068505 -0.20435101 -0.084626906 -0.04882489 0.07980507 0.0099036535 -0.10563434 0.020417841
-0.0028918437 0.009302987 -0.08809278 -0.036359485 -0.07403529 -0.070481524 -0.111899056 -0.020344952
-0.046125554 -0.10280822 -0.019967776 -0.102832556 -0.015961686 -0.062389553 -0.14796601 0.08699315
-0.026870936 -0.00951035 0.012798458 0.050049 0.14538282 0.054979246 0.029494587 0.025994139
0.04493407 -0.10201987 0.06957261 0.013640419 0.009917736 0.048607633 0.13624354 -0.04180739
0.02023259 -0.15089369 -0.0574447 0.005072459 -0.11247638 -0.016681625 -0.17828648 -0.056915227
-0.066928595 -0.14872454 0.12419933 0.044138886 0.025068834 -0.08492151 0.026181912 -0.054527596
-0.06810038 -0.092056856 -0.029485913 0.03702014 -0.034944337 0.07123625 -0.033454392 0.002884894
0.092368774 0.0032341655 -0.10646872 -0.08106719 -0.050355017 -0.035307195 -0.065812655 -0.03885479
-0.039659284 -0.082059026 -0.124800324 -0.10466782 0.0138390865 0.03857933 -0.108822905 -0.04631712
0.04149161 -0.017672906 0.1944644 -0.009990783 -0.08398062 -0.014042158 -0.07463572 -0.114763945
-0.052289847 -0.03492948 -0.01079942 -0.10446227 -0.017716436 -0.16958554 -0.016630279 -0.16309388
0.054691665 -0.081373066 -0.083164096 0.0767675 -0.209864 -0.18290904 -0.11973088 -0.07518389
0.09817679 -0.09381807 0.033507112 -0.05055893 0.11521887 0.05645085 -0.05476164 -0.033108912
-0.031091727 0.07289723 -0.051931143 0.04412563 -0.055283047 0.0759926 0.27180487 0.18513216
-0.012563085 0.03765906 -0.06507321 -0.10291659 0.029020812 0.006343223 -0.004447559 -0.15199184
0.015244836 -0.05948151 -0.0065231742 -0.015075389 0.016598362 0.062409077 0.037609242 0.2265053
-0.044131074 0.2265649 -0.0030933314 -0.043013792 -0.0481188 -0.07875856 -0.019358762 -0.1441991
0.022312056 -0.13343963 -0.17932634 -0.053727806 -0.20343359 0.09524278 0.10259736 0.083147176
-0.07766664 0.020465473 0.18771574 0.29870325 0.16308686 -0.05038389 0.048309177 0.29677105
0.112481736 -0.02276463 0.4270708 0.085404314 -0.19739604 -0.10025353 -0.11085303 -0.031754747
-0.001016691 -0.025144197 -0.055522636 0.033784706 0.10433539 0.07039204 -0.08308995 -0.0011388713
-0.117560364 -0.06056329 0.005333014 -0.123753935 0.05447297 0.147371 0.027315723 -0.0054317405
-0.064506516 -0.11128829 0.018902788 0.09427231 0.044779506 0.13433725 0.11661597 -0.09363706
-0.08221126 0.07275831 0.13319854 0.0035648602 0.020179855 0.06884046 0.018062238 0.1333534
0.049888216 -0.06411305 -0.0053858077 0.053674515 0.13895166 -0.026772926 -0.08329796 0.33608788
-0.0005203658 -0.06990885 -0.106566526 -0.074004546 -0.025146773 -0.08439572 -0.010992637 0.025424428
0.10203974 -0.013078978 0.059622616 -0.103217445 -0.09781636 0.05403089 0.06607395 -0.037510037
0.100327864 0.066163234 -0.009326469 -0.06818932 0.054741092 -0.029603895 0.15901135 -0.05160027

conv2.bias f4 [64]
00000000: a312 c6bd 06b3 483d b4af 233d 58ec 13be
00000010: e892 863d 2d8f e43c 41a2 02bd d0e4 013e
00000020: 4184 08bd 88b2 90bd 2533 02bd 02f5 333b
00000030: a505 313e 97c7 e03d d83a c9bd 2b68 80bc
00000040: 9994 123c 35b0 bb3d 05a8 4d3d 8441 67bb
00000050: 1f8d b4bd aea0 8c3d 7048 0a3d ca4a 88bd
00000060: 3e20 cdbd 109b 983d c1c4 68bd 112c ae3d
00000070: 7755 c8bd a7a8 9c3d 2ed8 d03c f1a7 06bd
00000080: 72e5 dc3c 6722 bb3c 8c0e ecbc 7af4 9fbd
00000090: 0f07 06bd af52 f1bc 9a29 b6bd 22e6 91bd
000000a0: 4b3b 683c 58f8 5b3e 64f5 c8bd 9997 40be
000000b0: 735e a8bd 5230 e0bd 6627 79bd c9c0 393d
000000c0: d9e2 a63d 433c 1f3d 76de 45bd c7e1 2cbd
000000d0: 82c8 39bc b4c3 60bc 3890 65bd eacf 47bd
000000e0: 5dbe 1bbe e0e9 2d3e a670 a9bd c1e6 b53d
000000f0: 6507 e3bd ae4c a63b 9d7c 933d 9c6f 113c
-0.096715234 0.048998855 0.039962485 -0.14445627 0.06570989 0.027900303 -0.03189302 0.12684941
-0.033329252 -0.07065302 -0.031787056 0.0027459268 0.1728731 0.10975569 -0.09825677 -0.015674671
0.008946561 0.09164468 0.050209064 -0.0035286853 -0.08815979 0.06866585 0.033760488 -0.0665489
-0.10015915 0.07451451 -0.056828264 0.08504499 -0.09781926 0.076493554 0.025493708 -0.032875005
0.026964877 0.022843553 -0.02881553 -0.07810302 -0.032721575 -0.029458372 -0.088946536 -0.071239725
0.014174293 0.21481454 -0.098124295 -0.1880783 -0.0822114 -0.10946716 -0.06082859 0.04534987
0.081487365 0.03887583 -0.04830786 -0.042207506 -0.011339309 -0.013718534 -0.05604574 -0.048782267
-0.15209337 0.16983747 -0.08273439 0.088819034 -0.11085395 0.005075059 0.072015025 0.008876707

fc1.weight f4 [128, 1600]
00000000: 11cd c0bc 30ab 9d3a 5376 03bd 1fbd b83b
00000010: 8b6e 5abb f59e 22bd 5e33 0dbd 2427 d4bc
00000020: 3c4a 6fbc a363 f53b 5258 b7bc 992c 263c
00000030: 4e2f a9bc cecc 1c3a 4932 04bd ad12 0dbd
00000040: 0c33 11bd dee5 f9bc 251a 0a3c c127 aabc
00000050: 97d6 70bc d619 18bd fec8 dabc 522f 92bc
00000060: 3f2a cebc abb7 1fbd 4e76 ecbc c9f1 dbbc
00000070: 7f6f 1fbd 98aa 153c 480c 1bbc 6ee6 043c
00000080: c8a5 d2bc 24ca 173b dceb a4bc 6ed2 18bd
00000090: dab9 bdbc 4230 78bc 8678 e6bc bf75 fabc
000000a0: 8208 89bc 646d 78bc 371f 9bbc ec72 6c3b
000000b0: b39f 76bc d70d 0ebc b215 c9bc caa0 48bc
000000c0: 4e33 bd3a 3bec 38bc 3d9a 6d3c ef7d 8a3c
000000d0: 73ce 51bc 5b6d a83c 67d4 733c b7ca 47bc
000000e0: dac2 7bbc cdef b1ba 4d7c b03b 5afe 7dbb
000000f0: fa56 883b 2dea acbb 7022 51bc 6796 ff38
00000100: bafe b33c fabb b2bb dacb d3bb 6a16 c0bc
00000110: 80c2 c0bb 6dde 6cbc ba8a fa3b f5ab a2bc
00000120: 2d52 7cbc 3d3c 42bc a731 d5bb 5dee 483c
00000130: 3d79 02bc 5a64 a7bb 6086 743c 1534 ac3c
00000140: 99b2 f3bc 8025 983b 735e 413b e579 9cbc
00000150: c329 0abc 6da3 6bba 7b46 813c 30a3 87bc
00000160: faf6 ac3b e7e7 e2bb 2248 09bd 572f bbbc
00000170: e073 49bc 004e 9aba 27ea a7bc 9e1f 53bc
00000180: 133f 30bc e744 2cbc 8075 a1bc f29e c73c
00000190: 8e9c 9abb cb86 1bbd 7a7e 7c3a 7681 1f3c
000001a0: 22da a1bc d0b0 5e3c 8a3f 313c 12a6 d5bc
000001b0: 6569 19bd d1dc 4a3a 2d6c e43b 3d5d fcbc
000001c0: 6336 14bd 35f8 3ebc fe1b eebc 63b0 543b
000001d0: e8d5 0abd ed02 41bc affb f5bc ccdc e7bc
000001e0: 97c6 72bc bfd7 243b 3c30 e4bc 5501 0cbb
000001f0: 99a4 e7bb a36f 55bc 9aa3 8c39 c005 debb
00000200: adc4 5abc 508a 5e3c 8771 513c e748 523b
00000210: 4a5f 27bc 778f c93c 6d64 073c fbb9 ad3c
00000220: 2302 a83c cabc 4bbc 388c abbc 3a4b 5cbc
00000230: dde7 4bbc b82b b53c 7a9a 643c b7a3 b73c
00000240: 4a51 443c 4dbe a63b d3f2 fe3b e7bb 2abc
00000250: 33e1 87ba bd3a 9dbc 98b3 0dbd 11b6 1cbd
00000260: 5d53 003c fd51 e3bb ddec 17bd 9434 25bc
00000270: f88f 13bc f3b9 e2bb 8412 1dbd f201 d43b
00000280: 6346 063c b7e3 1cbb fd90 0dbc f870 bb3c
00000290: 0197 0dbd 9a7d 3d3b 6a75 96bc 1328 aebc
000002a0: 67e3 02bb 8bde f63a 6a11 1f3c 6a01 063c
000002b0: 9a8c 8bbc 8727 8dbb b893 adbc aae1 6abc
000002c0: d3d5 d43b 7702 133c 8aa0 5a3c 671e 2d3b
000002d0: 338b 1739 f042 44bc 9b91 c6bc 236d 90bc
000002e0: 4a35 a1bc 0a76 04bd a51e 923c e7be cd3b
000002f0: 9395 2d3c 7247 17bd 3300 39bc c768 20bc
00000300: 4afe 52bc 2b17 afbc 8226 21bd 832e b1bc
00000310: b3f5 5a3b 6095 07bc bae1 4b3c 58e6 25bc
00000320: 6e0e 963b c743 2e3c 6846 b4bc a753 8b3b
00000330: e868 be3c 22d9 35bc 3ed7 19bb cb1b cabc
00000340: 1aa0 73bc 95bd debc 947a d0bc 14f3 06bd
00000350: 530d 8f3b ef0b a93c fd83 a8bc 785f 66bc
00000360: d3ac bcbc b2be aabc 1a1d 9b3b c797 8e3b
00000370: e863 10bd 50ff 523c 0adc a0bc f7d0 7a3c
00000380: 67d6 9539 f9df b8bc 1bee 21bd 5321 493b
00000390: c2a0 1ebd 7141 bebc 6d69 6dbc 34d5 74bb
000003a0: 8a98 5e3c 0070 4338 603c 193c 13a9 81ba
000003b0: 18d9 e53b da54 583b 8a68 1e3c 7b41 b9bc
000003c0: 4a74 18bd e257 36bc 60a7 b3bb fd92 c53c
000003d0: 6043 adbc 4e1e 08bd 8753 86bc 07c9 95bc
000003e0: ebb7 abbc 7732 363c cab9 80b9 41a9 d8ba
000003f0: 6d78 0dbd 2c3a b93b 92de afbc 5928 86bc
-0.023535283 0.0012029167 -0.032095265 0.0056377794 -0.003333005 -0.039702374 -0.034472816 -0.02589757
-0.014605101 0.0074886843 -0.022380982 0.010142469 -0.02065244 0.0005981446 -0.03227452 -0.03444164
-0.035449073 -0.030505117 0.008429085 -0.02077091 -0.0146996 -0.037134014 -0.026707169 -0.01784483
-0.025166629 -0.03899352 -0.028865006 -0.02684869 -0.03892469 0.009134911 -0.009463377 0.008111579
-0.025713816 0.0023161257 -0.020131998 -0.037310056 -0.02315991 -0.015148224 -0.028133642 -0.030573724
-0.01672769 -0.0151627995 -0.018935783 0.003607924 -0.015052724 -0.008670292 -0.024546478 -0.012245366
0.0014434846 -0.0112867905 0.014502105 0.016905753 -0.012805569 0.020559957 0.014882184 -0.012194327
-0.01536628 -0.0013575495 0.0053859116 -0.0038756342 0.004160759 -0.0052769394 -0.012764558 0.00012187362
0.021972049 -0.0054545375 -0.00646351 -0.023448188 -0.005882561 -0.014457327 0.007645932 -0.019857386
-0.015400452 -0.011855182 -0.006506163 0.0122638615 -0.007963476 -0.0051083984 0.014924616 0.021020928
-0.029748248 0.004643142 0.002950576 -0.019101093 -0.008432808 -0.0008988891 0.015780678 -0.016557306
0.0052784653 -0.0069246176 -0.033516057 -0.022849722 -0.012295693 -0.0011772513 -0.020497395 -0.012885956
-0.010757226 -0.0105144745 -0.019709349 0.024367783 -0.00471837 -0.037970345 0.00096318836 0.009735456
-0.019757334 0.01359196 0.010818372 -0.026080165 -0.037454028 0.00077385927 0.0069709034 -0.030806178
-0.03618468 -0.011655857 -0.029066082 0.0032453767 -0.033895403 -0.011780483 -0.030027239 -0.028303526
-0.014817855 0.0025153009 -0.027855031 -0.0021363099 -0.007069182 -0.013027105 0.00026824774 -0.006775588
-0.013352555 0.013582781 0.012783415 0.003208691 -0.01021559 0.024604542 0.0082636895 0.021206846
0.020508831 -0.012435148 -0.020940885 -0.01344567 -0.012445417 0.022115573 0.013952846 0.022416933
0.011982271 0.0050886036 0.0077804117 -0.010420776 -0.0010366797 -0.019193048 -0.034595102 -0.03825957
0.007832375 -0.006937264 -0.037091125 -0.010083336 -0.009006493 -0.0069191395 -0.038347736 0.0064699585
0.008195492 -0.002393944 -0.008640525 0.022881016 -0.034567837 0.0028913976 -0.018366534 -0.021259343
-0.0019971968 0.0018834634 0.009708742 0.008179048 -0.017034817 -0.0043076905 -0.021188602 -0.014336029
0.0064952164 0.008972756 0.01334394 0.0026415826 0.00014452338 -0.01197885 -0.024239352 -0.017630165
-0.01967873 -0.032339133 0.017836878 0.006278861 0.010594743 -0.03693337 -0.011291551 -0.009790606
-0.01287801 -0.021373352 -0.039343365 -0.021628624 0.0033410608 -0.00827536 0.012443954 -0.010125719
0.004579357 0.010636277 -0.022006229 0.0042519155 0.023243383 -0.011099132 -0.0023474242 -0.024671456
-0.014869714 -0.02719001 -0.025449075 -0.03294666 0.004365602 0.020635573 -0.02057075 -0.014060847
-0.023031628 -0.020842884 0.004733694 0.0043515894 -0.035251528 0.012878254 -0.019636173 0.01530861
0.00028579237 -0.022567736 -0.039533716 0.0030690029 -0.03872753 -0.023224564 -0.0144904675 -0.0037358524
0.013586173 4.659593e-05 0.009352773 -0.0009892307 0.007014405 0.003300956 0.009668479 -0.022614231
-0.037220277 -0.011129351 -0.005482599 0.024117941 -0.021150291 -0.033232026 -0.01639725 -0.018284334
-0.020961722 0.01112043 -0.00024552486 -0.0016529934 -0.034538675 0.0056526866 -0.021468434 -0.016376661

fc1.bias f4 [128]
00000000: bf3e a6bc 0495 653d 1ee1 e33d b891 e8bc
00000010: efc3 26bc 959a 8dbc 90eb 49bc e472 5b3d
00000020: 04f7 2139 3658 1b3d 0c25 eebb 798a 6a3d
00000030: 287c 343d 7f27 ed3c 4334 ac3d 9138 50bd
00000040: 8718 09bd 13b4 923d 2a4d abbb 889e 43bd
00000050: e1cf 793d 1146 2e3c 79d7 a4bc 13c8 80bc
00000060: 34d3 e93c d63c 713d 2dd3 573d d17c febc
00000070: 4a3d e83c af12 80ba 8607 c03b 4cf9 f2bb
00000080: ee02 703a 1de9 c73c 5e39 403d 13b9 0d3d
00000090: cb0a 853c c115 8ebc ff40 843c 709b 893d
000000a0: fdf2 8b3d 4809 a8bc 764e 5cbc 6173 85bb
000000b0: 8f86 ceb9 52d7 39bc bc8f 5c3d 2d1d 8e3c
000000c0: 3fd2 7a3d 4e1d c6bb 2c5b 5cbc e806 9d3c
000000d0: d3dd d03b 2585 533d b3ae 14bc 8f6f 9b3b
000000e0: d6f2 913d 9adc 663c 6ee5 053c 6b90 0b3d
000000f0: a399 583d 18f4 493d 4197 863d 5aaa b13c
00000100: 669c 413c 4f13 c93b 7bf6 0b3c db74 a5bc
00000110: ac13 e3bb 99a5 9d3d d982 c1bc e587 a23b
00000120: 7791 05bc 778b 6a3d fdeb 243c a882 ba3c
00000130: 3b54 91bc 0189 1a3d 81bf 853d 3c6e 88bc
00000140: 2d15 63bc de12 a93d e89c 523c e1a0 423d
00000150: 9b66 eebb bcdd 673b 7b13 d2bb 5202 1d3d
00000160: 390b 74bc f604 163d ca25 d63c aedf b4ba
00000170: 38d4 883d 87cf e1bc 225c e7bc 59fc babb
00000180: 9db1 15bc 098c 90bc 99c4 543c 52e0 8f3d
00000190: dee2 4a3d 855d cdbb bd13 653c 06e3 bd3c
000001a0: 3ad2 c7bc 475b 4b3d 5d95 053d 8a69 dc3c
000001b0: 1d74 a13c 59da 37bd e288 0a3b a940 51bc
000001c0: 88ab 463d 07da b3bc e521 c9bc bda5 d3bc
000001d0: 7766 e6bc 4d45 cb3c cfe3 a8bc 5c08 14bd
000001e0: 3c42 873c 6f85 9dbc 3d0d ecbc 7453 c33c
000001f0: c00c 373c e9e7 21bc b25b 14bc b380 323b
-0.020293592 0.056050315 0.11126922 -0.028389797 -0.01017855 -0.017285625 -0.012324229 0.053576365
0.00015446177 0.03792592 -0.0072676 0.057260964 0.044063717 0.028949497 0.08408406 -0.050835196
-0.033470657 0.07163253 -0.0052277045 -0.04775861 0.060989264 0.010636822 -0.020122277 -0.015720403
0.028543092 0.05889591 0.052691627 -0.031065376 0.028349537 -0.0009771193 0.005860272 -0.0074149724
0.000915571 0.02440315 0.04692971 0.03460033 0.016240498 -0.017344357 0.016144274 0.067191005
0.06833456 -0.020512238 -0.013446441 -0.004072592 -0.00039391636 -0.01134284 0.053848013 0.017347896
0.061235663 -0.006045974 -0.013449471 0.019168332 0.0063740998 0.05164065 -0.009074855 0.0047435234
0.071263954 0.014090681 0.008172376 0.034073275 0.052880894 0.04930505 0.06571818 0.021687675
0.011817073 0.006136335 0.008542652 -0.020197323 -0.0069298353 0.07697601 -0.023621963 0.0049600475
-0.008152357 0.05726191 0.01006603 0.02276738 -0.01774036 0.037728313 0.06530667 -0.016654126
-0.013860029 0.08255552 0.012854792 0.047516707 -0.007275415 0.0035379967 -0.0064110137 0.03833229
-0.014895254 0.036625825 0.026141066 -0.0013799572 0.066811025 -0.027564777 -0.028242175 -0.0057063517
-0.009136585 -0.017644899 0.012986326 0.070252076 0.049532764 -0.006267252 0.013981757 0.023179542
-0.024392236 0.049647596 0.032613147 0.026905794 0.019708687 -0.044885967 0.0021138717 -0.012771764
0.04850343 -0.02195455 -0.024552295 -0.025835866 -0.02812503 0.024813319 -0.02061644 -0.036140785
0.016511075 -0.019228665 -0.028814906 0.023843504 0.011172473 -0.009881952 -0.009055065 0.0027237355

fc2.weight f4 [10, 128]
00000000: e34f d0bc cbbe 08bd f0c4 5bbd a02e 4cbd
00000010: 9e75 803d 17f7 80be 6531 483d 5e04 44be
00000020: 8272 103d 30d3 ad3d 4cf6 d8bb d7e9 96bd
00000030: 5a3f ecbd 5038 a03d fe8f e6bd ae06 f3bc
00000040: cb4f 96be 62a5 a2bc 3b0c d73c aee8 04bc
00000050: 1ae1 4fbd 732f eabd e774 b33c f8d4 253e
00000060: f135 9a3d d5e2 e1bd e00e 9abd d607 9a3d
00000070: 5b1d 95bd 1b6a 20be 8678 cebc 625f a93d
00000080: ab71 b6bd b9f4 103e df0b 45be 598c 073d
00000090: 72ed 5b3d 530f 9d3d 5830 f23d 1b8c 3bbd
000000a0: 6b8a b13d 7610 6e3c f665 7a3d 5165 5f3d
000000b0: 79e6 a2bd d1ab efb9 0d36 c93d 9030 98bd
000000c0: da40 ccbd ff22 a63d a764 d0bd bf5c 643d
000000d0: 60b1 dbbc e5ac 323d 928b ffbb 51a7 a53d
000000e0: eec7 e03c 61f7 b7bc 8fde 5e3d c1c7 c33d
000000f0: 7165 433d 6f51 d13c 0b46 8abe 0d68 703c
00000100: b951 3bbd 057a a0bd ba33 cb3c 717e f73d
00000110: 7727 a63d dfea 1cbd cb76 d83d 2d5d 67bd
00000120: fd4a 53bd 47ff 683d 295f b73d 5b0f 98bd
00000130: 7785 56bd aaa6 b2bd 2cc5 8abe eb8e 8bbd
00000140: 3f7e f13b 73b6 0fbe f07a b0bd 5439 113e
00000150: 5d54 7f3d b55f 89bc 8468 13bd 7c20 e1bd
00000160: cb0c 043d 0c7b 6abd 014c 043d 40de 363c
00000170: 51d0 b1bd 711d 1d3d b7a9 883c c96b 86bb
00000180: cb67 6b3c 92d3 013e 600d 1b3d 9b8b fdbc
00000190: 6940 cd3d c4d0 e43d a397 bd3d 8977 80be
000001a0: f80f 49ba 192d f6bc 79f7 b03d b17f 29bd
000001b0: 8b0b 39bd e4a9 09bc ff34 c9bc c829 81bd
000001c0: 5313 cbbb e392 e8bb 0219 85bd 0c05 cabc
000001d0: eee2 503d f2b8 b9bd 28a5 97bd b9b2 e73b
000001e0: 2d6e 0fbe c3bd 74bd 356a 7bbd 62c8 633d
000001f0: 0ba2 013e efe8 cabb 77b3 c43d 5117 ef3c
00000200: 50bc 31bd e063 d23d f105 26be 091f da3c
00000210: ee1f 56be 8ebe 393e e835 88be ee34 5fbd
00000220: 2a72 4abd 4b48 a0be fcc0 eb3c 06f3 023e
00000230: b285 713d 7d1f 94bd bc5b db3d 5b8d 02bd
00000240: e67f 33be 79a6 ce3d 2eeb 96bd 79b5 c9bc
00000250: 21fc 903d 97f9 81be a466 ce3d f46e 36be
00000260: 1ad4 17be 3044 a4be 7a81 a3bd 4006 34bc
00000270: 982c aebd 19a4 4cbe e46b 093c a448 863e
00000280: 0b25 4bbd 2f35 9d3d bfd5 84be bd7d 8abe
00000290: 5e6c 623d 14f0 bbbd bfc7 063e 54ec f8bd
000002a0: 3d7e 74be a16d f93d 95ca 18be 56c7 4dbd
000002b0: 8377 67bd a9c1 a0bd 6054 3ebd a913 a93d
000002c0: 60f5 c23d a275 9dbc 326e e83c 7e69 dd3c
000002d0: edc6 84bd 4548 9bbc 0ce5 9dbd 37a0 a43d
000002e0: 2b93 4dbd 3a62 34be 18dd f33c a163 aabc
000002f0: 4b6d 3fbe f50e e33c 28b7 1b3e b9ba c93d
00000300: 67a3 1c3d e27c 1f3e 010c acbd a684 bcbd
00000310: c7d4 97bd 7be3 243e 82f6 3ebe f31d 693d
00000320: 396d 20bd 16e4 68be 6692 533d 08c9 52be
00000330: e646 e63b 3857 cebd e67e 2dbd a3dd 45bc
00000340: 9c45 8dbd 3d9e 14bc 498b 863d 3526 6f3d
00000350: eb6a 303d 70a6 f4bc a6a4 b0bd e441 bd3c
00000360: b5ed 1f3e bafc 07be 1eec f53d 5a25 9f3d
00000370: cad4 02be 07dc 3cbd 22ef dcba 4a38 33bc
00000380: 14a6 843d 5cd6 4b3c 7f02 a93d d59f c0bd
00000390: a6c5 383b 7ec8 b73d 74de da3c f2d1 9e3c
000003a0: 99ec 533d 7c02 873d 8d49 1d3d 2dba 2d3e
000003b0: 14cb 613d 8fd7 2cbd 60f7 60bd dd0d 2abd
000003c0: a1b1 643b 3d9e 8ebd bc9c 373d d4a5 23bd
000003d0: ee84 cc3c 8516 f63a bd9e b5bd be50 623d
000003e0: 215d ff3d fb65 e33d ba6c 9e3d 3a54 063e
000003f0: 6fc2 23be 2bbc 8e3d 5e86 52be e2bd efbc
-0.025428718 -0.03338508 -0.05365461 -0.049849153 0.06272434 -0.25188515 0.04887523 -0.19142291
0.035265453 0.084875464 -0.0066211578 -0.0736882 -0.11535521 0.07823241 -0.11257933 -0.029666271
-0.29357752 -0.019854251 0.02625095 -0.008112116 -0.050751783 -0.114348315 0.02190633 0.16194522
0.0752982 -0.11029593 -0.075223684 0.07521026 -0.0728099 -0.15665476 -0.025203954 0.08270146
-0.08908399 0.14155854 -0.1924281 0.03309283 0.053693242 0.076689385 0.11825627 -0.04578791
0.08668979 0.014530292 0.061132394 0.054539982 -0.079541154 -0.00045713646 0.098247625 -0.074311376
-0.09973307 0.08112144 -0.10175448 0.055752512 -0.026817977 0.043621916 -0.0077986205 0.08088554
0.027439084 -0.022456827 0.054411467 0.095595844 0.047704164 0.025551526 -0.27006564 0.014673245
-0.045732234 -0.078357734 0.024804939 0.12084664 0.08112996 -0.038309928 0.10569533 -0.056485344
-0.051585186 0.056884076 0.08953697 -0.07424804 -0.052373376 -0.08723195 -0.27103555 -0.06814369
0.007369786 -0.14034443 -0.086171985 0.14182025 0.062336314 -0.01676927 -0.035988346 -0.10992524
0.032238763 -0.057246253 0.032299045 0.011161387 -0.08682311 0.038358156 0.016682489 -0.0041022045
0.014368008 0.12678364 0.037854552 -0.030950358 0.10022051 0.111726314 0.09257438 -0.25091198
-0.0007669921 -0.030050801 0.08640952 -0.04138154 -0.045177024 -0.0084023215 -0.024561403 -0.06306797
-0.006197372 -0.0070975884 -0.064989105 -0.02466061 0.050997667 -0.09068479 -0.07404548 0.007070866
-0.14006872 -0.059751283 -0.061380584 0.05561102 0.1265947 -0.0061923186 0.09604543 0.029185923
-0.04339248 0.10272956 -0.16213204 0.026626127 -0.20910618 0.18139097 -0.26603627 -0.054493837
-0.04942528 -0.31305155 0.028778546 0.12788019 0.058965392 -0.072325684 0.10710856 -0.03187309
-0.17529258 0.10090346 -0.07369076 -0.024622666 0.0707934 -0.25385734 0.10078171 -0.17815763
-0.14827004 -0.32083273 -0.0798368 -0.010987818 -0.08504599 -0.19984473 0.00838754 0.26227295
-0.049595874 0.076761596 -0.25944325 -0.27049056 0.05527913 -0.09176651 0.13162135 -0.12154451
-0.23876281 0.12179113 -0.14921029 -0.05023893 -0.05651046 -0.07849438 -0.046467185 0.08255703
0.09519458 -0.01922113 0.028372858 0.027027842 -0.064832546 -0.01895536 -0.07709703 0.08038371
-0.05018918 -0.17615595 0.029768512 -0.02079946 -0.18694036 0.027717093 0.15206587 0.09850068
0.03824177 0.15574983 -0.08400727 -0.09204988 -0.07413631 0.16102402 -0.18648723 0.056913327
-0.039166663 -0.22743258 0.05165329 -0.205845 0.0070274947 -0.100752294 -0.042357348 -0.012076768
-0.068980426 -0.00907093 0.06569535 0.058386046 0.043070715 -0.02986452 -0.08625154 0.023102708
0.15618022 -0.13280001 0.120079264 0.07770796 -0.12776485 -0.046108272 -0.0016855935 -0.010938713
0.064769894 0.012441244 0.08252429 -0.094054855 0.002819398 0.08973788 0.026717402 0.01938722
0.05173931 0.06592271 0.03840022 0.16965552 0.05512531 -0.04219776 -0.054923415 -0.041517127
0.0034895914 -0.06963775 0.044827208 -0.039953068 0.02496573 0.0018775022 -0.088681675 0.055252783
0.12468935 0.111034356 0.07735582 0.13118067 -0.1599214 0.06969484 -0.2055907 -0.029265348

fc2.bias f4 [10]
00000000: 5a26 dcbc ee5b d2bd dd7e 76bd fe7b e1ba
00000010: 8abc 443d 9768 f9bd 0432 db3d 3bcc 773d
00000020: 5b4f ba3b 8439 c13b
-0.026873756 -0.102714404 -0.06017958 -0.001720309 0.048031367 -0.12178152 0.10702899 0.060497504
0.0056857294 0.005896749
